model.pth (torch, 960069 bytes, 110 tensors)

weight f4 [65, 64]
000000 ec 44 f4 3e a4 f6 92 3e fa c1 ae be eb b6 2b bf
       0.47708833 0.28703797 -0.34132367 -0.67075986
000010 19 a1 ab bd af 2c c1 be 10 f3 2f 3f e5 c9 9f 3e
       -0.08380336 -0.37729403 0.6873026 0.3120872
000020 99 87 36 3f df 51 88 3f 01 ed a1 bf 31 fe 77 be
       0.71300656 1.0649985 -1.2650453 -0.2421806
000030 b2 ad 05 3e 2e eb 09 3c 9f af 4b bf de 71 92 3f
       0.13054541 0.008417888 -0.7956485 1.1441
000040 a5 18 9a 3f 10 e8 38 be d2 c9 0a 3f 7c b9 93 3f
       1.2038771 -0.18057275 0.54214203 1.154098
000050 31 36 f6 bf 18 f8 0e 3f b7 38 da 3f 2d 68 08 3f
       -1.9235288 0.5584731 1.7048558 0.5328396
000060 69 22 61 bb c6 f6 d0 bf 3c 3d 92 bf b3 79 43 bf
       -0.0034352785 -1.6325309 -1.1424937 -0.76357573
000070 dd 04 27 3e 8f 6f 6e bf 7d 90 ca 3f e5 5c 20 40
       0.16310449 -0.93138975 1.5825344 2.5056698
000080 da 47 d1 be 98 45 56 be 68 2c 9b 3f a5 03 83 3e
       -0.4087513 -0.20924985 1.2122927 0.25588718
000090 69 62 98 be 35 ee 27 3f 3b 84 3d bf ce a5 47 be
       -0.2976258 0.6559785 -0.7402989 -0.19496843
0000a0 fa 82 5f be da c0 46 bf 98 00 50 3e 71 88 c1 bf
       -0.21827307 -0.7763802 0.20312726 -1.5119764
0000b0 45 6e 89 bf 92 93 3a 3f 1d cc 4c bf 74 72 17 bf
       -1.0736777 0.72881424 -0.7999895 -0.59159017
0000c0 a2 ce c8 3f b7 79 28 bf 36 00 a6 3f 89 c5 27 bf
       1.5688059 -0.6581072 1.2968814 -0.6553579
0000d0 d9 2d b2 bf d7 63 17 40 95 d4 14 40 b2 d9 c8 bf
       -1.3920242 2.3654687 2.325475 -1.5691435
0000e0 16 a1 d9 3f 95 b1 b7 bf 3b e9 7d 3e f7 35 7b be
       1.7002285 -1.4351069 0.24796002 -0.24532305
0000f0 e4 30 41 3f bc 22 ae 3f 83 f7 be 3f 36 6e 4f bf
       0.75465226 1.360435 1.4919285 -0.81027544
000100 09 e5 61 bf 4f 61 f5 3e ec af 8b bd 7a b0 1f be
       -0.88240105 0.47925803 -0.06820664 -0.15594664
000110 ee ec 0a bf 96 a1 15 3f 5f 79 77 bd 02 f8 3e bf
       -0.54267776 0.58449686 -0.060418483 -0.7459718
000120 4f d7 21 40 2e 45 18 bf 55 ce f1 3e f0 83 2d 3f
       2.5287664 -0.5948056 0.4722773 0.67779446
000130 7f c9 b7 bf f5 42 6c 3f d9 25 f2 3d 41 ba 53 bc
       -1.4358367 0.9228967 0.11823625 -0.012922824
000140 6b 4b 13 40 d7 ff 99 bf f0 20 69 3f 0f 7a 20 3f
       2.3014781 -1.2031201 0.91065884 0.62686247
000150 e0 2d db bf d5 96 6d bf bf 61 91 3f 82 1f 20 3b
       -1.7123375 -0.92808276 1.1357955 0.0024432843
000160 ef be cc 3e d7 26 f2 be 1f 39 1f 3f 8a 18 32 bf
       0.3998942 -0.47295257 0.62196535 -0.69568694
000170 a6 ed 86 be dd 21 f6 be b4 16 84 bf 3e 04 4b ba
       -0.26353186 -0.4807271 -1.0319428 -0.00077444676
000180 9f 49 af bf ed f7 a5 bf 35 f5 0a bf 23 e8 72 3f
       -1.3694342 -1.2966286 -0.54280406 0.9488546
000190 87 9b 01 3e 09 7a f2 be ac fb 09 be dd b2 a5 3a
       0.12656985 -0.4735873 -0.13474911 0.0012641806
0001a0 b4 e1 77 be 92 4c d0 be 2e b6 b5 3d 93 89 84 3f
       -0.24207193 -0.4068342 0.08872639 1.0354484
0001b0 78 fe 24 3e a6 66 17 40 0c b1 44 bf 15 41 01 c0
       0.16112697 2.3656402 -0.7683265 -2.0195973
0001c0 b5 18 ce be 1d e8 c8 be 95 33 80 3f a3 cc f9 bf
       -0.40253225 -0.39239588 1.0015742 -1.9515575
0001d0 4e f5 03 3e 9d 31 ed 3e bf ee c1 bf cf e8 41 3f
       0.12886545 0.46326914 -1.5150985 0.7574586
0001e0 84 70 d0 3f d7 09 05 3f 25 32 58 3e c2 37 e3 be
       1.6284337 0.5196814 0.21112879 -0.44378477
0001f0 5d 99 8f bf a9 44 31 3f 68 ee 25 bf b5 4c e2 bf
       -1.1218678 0.6924539 -0.64816904 -1.7679659
000200 60 ae 8b bf 45 b6 12 40 01 62 8d 3f 43 64 40 bf
       -1.091259 2.2923748 1.1045533 -0.7515299
000210 1a 5b d0 3f 1c d0 5d 3f 7f 0c 39 bf 0b 71 70 bf
       1.6277802 0.86645675 -0.7228469 -0.9392249
000220 1a 36 44 bd 95 40 79 bc 8f 8b e3 3e 39 9c ce 3e
       -0.047903158 -0.015213151 0.44442412 0.40353563
000230 6a 39 26 3e be 1a a5 bf 07 8d 3f 3e 40 ac 87 3f
       0.16232839 -1.2898786 0.18706141 1.0599442
000240 19 22 05 40 74 9b 00 3f 10 1b b0 bf 6a d2 ec be
       2.0802062 0.502372 -1.3758259 -0.46254283
000250 d2 4b c0 3e 16 8b da bd 3c 0d 2c bf 2a c3 96 3f
       0.37557846 -0.1067106 -0.67207694 1.1778309
000260 7e 5c 07 be c1 ec 12 3e 27 45 5d 3f 54 70 b7 be
       -0.13218877 0.14348127 0.86433643 -0.35827887
000270 4b 40 97 bf cb 78 b3 be 3b 3d 91 3f 84 25 09 3e
       -1.1816496 -0.35053095 1.1346811 0.13393217
000280 ba 4a 22 bf 19 f3 c6 3e 8c bb 36 bf a2 0b cf 3f
       -0.63395274 0.38857344 -0.71379924 1.6175425
000290 2b 60 ee bf fb 00 98 3e ae a7 30 bf 7f 77 ed 3b
       -1.8623098 0.29688248 -0.6900586 0.007246911
0002a0 23 93 d3 3e 95 70 85 3f 0b d3 7b 3d b3 5b ad be
       0.41323194 1.0424982 0.061480563 -0.33859023
0002b0 b8 d0 b5 bf 8b 6f b3 be de 8b c2 bf 88 f0 d8 bf
       -1.4204321 -0.35046038 -1.5198934 -1.6948404
0002c0 2f 82 81 be a7 60 82 bf 09 0f be 3e 2e 02 dd 3d
       -0.25294635 -1.0185746 0.37120846 0.10791431
0002d0 71 f4 68 3f ae fa 91 3f 8a f3 d6 bf 92 3f c0 3f
       0.9099799 1.1404626 -1.6793072 1.50194
0002e0 f3 b6 9d 3f f8 35 40 3f 3e 0e 88 3f f6 bc c4 bf
       1.2321457 0.7508235 1.0629346 -1.5370166
0002f0 21 63 34 bf 62 57 9e 3f 8c 96 12 3f b3 1a e5 3f
       -0.7046376 1.2370417 0.57260966 1.7898773
000300 25 f9 c3 3d 2b b8 e3 be de 1f bb 3f bc 8f 99 3f
       0.09569005 -0.44476447 1.46191 1.1996989
000310 fc 0f 6b 3f 54 da 15 bf ab b0 92 be 06 42 bb 3e
       0.91821265 -0.5853627 -0.28650412 0.3657381
000320 b9 8b d4 bd 9e ee ae bf 5f bd 78 3f 50 6d 18 3f
       -0.103782125 -1.366657 0.9716396 0.595418
000330 55 c9 97 bf e0 61 5b bf 26 8f 9b 3c e9 4d 0b 3e
       -1.1858317 -0.8569622 0.018989157 0.13603939
000340 fc b2 99 3e 8f f7 1c bf 44 24 22 be ad 80 f3 be
       0.30019367 -0.61315244 -0.15834147 -0.4755911
000350 9c b0 f5 3e 26 da c7 3e f4 17 7c 3f b5 c0 1c 3f
       0.47986305 0.39033622 0.9847405 0.6123155
000360 91 32 9d 3e 13 57 5c 3f f4 37 45 be 07 46 3c bf
       0.30702642 0.86070365 -0.19259626 -0.73544353
000370 02 28 af be 84 ea c3 3e 0b d0 df be 33 10 dd be
       -0.3421021 0.3826486 -0.43713412 -0.43176422
000380 71 56 26 bf b2 be 3b be a6 41 09 3e 59 76 c3 be
       -0.6497565 -0.18334463 0.13403949 -0.3817623
000390 47 b8 2b 3d 48 85 52 3f 4d e9 36 bc d7 c7 d4 be
       0.041923787 0.8223462 -0.011164022 -0.41558716
0003a0 76 89 2d 3f b4 89 97 bf a7 3f 0e 3f 9e d1 b8 bf
       0.67787874 -1.1838899 0.55565876 -1.443897
0003b0 ed 80 39 bf d2 fa 13 bd e2 d6 a2 be c0 ed 6c be
       -0.7246235 -0.036127873 -0.31804568 -0.2313757
0003c0 2d 39 b4 3f 0e f5 e2 3d e2 82 36 bf dd 74 62 bf
       1.4079949 0.11081897 -0.7129346 -0.8845957
0003d0 88 50 c9 3e 5b 5e bf be 6d 8d 19 3e bc 59 55 bf
       0.39319253 -0.37376675 0.14995356 -0.8334005
0003e0 ea e2 c6 be 95 ad 97 3e ea ec 74 bf 63 b3 6e bf
       -0.38844997 0.2962462 -0.95674 -0.9324247
0003f0 78 b6 82 3f 70 a9 cc bf bc 39 d1 be 58 99 55 3f
       1.0211935 -1.5989208 -0.4086436 0.8343711

weight f4 [32, 64]
000000 be 91 b8 bf 7e ca fe be c5 76 23 c0 79 0e cd bf
       -1.4419477 -0.49763864 -2.554124 -1.6020042
000010 06 8f 64 be e6 c9 69 be e8 2b 3e 3f c2 4a 81 3e
       -0.22320184 -0.22830924 0.74285746 0.25252348
000020 bd 15 d5 bf d0 3f c1 be 71 72 2e 3f 3a 96 5f 3f
       -1.6647259 -0.37743998 0.68143374 0.873386
000030 c4 56 9e 3e 3b 56 b2 bf d7 7f 13 bf cc e2 e7 3f
       0.30925572 -1.3932565 -0.57616943 1.8116088
000040 d0 3b 4a 3f db 6f 9b bf 9d b1 a0 bd 3e 96 7d 3c
       0.78997517 -1.214351 -0.07846377 0.015477715
000050 2f a9 5a c0 ca 9c 8a 3f 9a b8 4a bf 95 34 f6 bd
       -3.4165761 1.0829098 -0.7918793 -0.12021748
000060 e1 6a 13 40 e1 39 5a 3f ac 02 fb bf bd 79 84 be
       2.3033984 0.85244566 -1.961019 -0.2587413
000070 d3 2b 20 40 09 6e 4d bf 80 66 84 3e 04 eb 12 bf
       2.5026748 -0.80246025 0.2585945 -0.57389855
000080 d1 a5 8a bf a0 70 f4 be 36 46 c5 3d 6f 19 70 3f
       -1.0831853 -0.47742176 0.09632532 0.9378881
000090 a7 43 22 3f 01 06 9c 3f 6b 52 6e bf 3d 1c 44 bf
       0.6338448 1.2189332 -0.9309451 -0.7660559
0000a0 15 ed bf 3e 8f 26 a1 bf e0 7b 3c 3f 8b fe af 3f
       0.37485567 -1.2589892 0.7362652 1.3749555
0000b0 80 b4 c8 be db f7 71 be f8 71 c5 be db cc bf bf
       -0.3920021 -0.23629706 -0.38563514 -1.4984392
0000c0 53 c8 1a bf d2 ff ee be da 8f 2d 3f fa a5 29 bf
       -0.6046192 -0.4667955 0.67797625 -0.66268885
0000d0 0b c4 b0 be fe bc 83 bf b2 99 b8 3f 08 1b 03 bf
       -0.3452457 -1.0292051 1.4421904 -0.5121312
0000e0 85 df b9 bd 7f 59 1e bf 86 b5 09 40 50 0d 0b bf
       -0.09075836 -0.6185531 2.1517043 -0.5431719
0000f0 95 76 92 bf 00 eb 2b 3f 70 4b e2 3f ea 2e a5 3f
       -1.1442438 0.67155457 1.7679272 1.2904942
000100 05 e1 3b 3e 37 ad 35 3f 64 77 74 3e 0e 84 1b 3e
       0.18347557 0.7096743 0.23873669 0.15187094
000110 ca fa 07 bf 3b 0d 98 3f 10 0b 2b 3e ad 4b 91 bd
       -0.5311705 1.1879038 0.16703439 -0.07094512
000120 04 51 be be 9d a2 74 be e4 f4 63 3e e3 e6 41 be
       -0.37171185 -0.23890157 0.22261387 -0.18935733
000130 1c 8c 57 bf 51 4b 66 bf 90 e7 3a bf 53 2b 82 3f
       -0.84198165 -0.89958674 -0.73009586 1.0169472
000140 f6 a7 14 3e 1d e4 2f 3f 33 71 a2 be ec b5 c0 3d
       0.14517197 0.6870745 -0.3172699 0.09409699
000150 93 ec 8b be c1 f0 25 3f 10 75 22 bf 48 55 3e bf
       -0.2732893 0.64820486 -0.63459873 -0.7434888
000160 2c c7 aa be b4 40 da be 85 ca d7 bd 06 d0 e3 3c
       -0.3335508 -0.4262749 -0.105366744 0.027809154
000170 38 36 2e 40 67 a7 88 3f 9d 0a 7e be 93 63 81 3f
       2.7220592 1.0676087 -0.24808736 1.0108513
000180 f8 99 5b bf 8b 7f 73 be c6 86 0b be e5 49 1b bf
       -0.8578181 -0.23779123 -0.1362563 -0.6065963
000190 59 db 58 3f 39 0b bf 3e e9 62 3c 3f 97 e3 27 bf
       0.847097 0.3731325 0.73588425 -0.6558165
0001a0 e4 e8 38 bf 86 36 90 be de 8e cb bd a1 c4 5f 3f
       -0.7223036 -0.28166598 -0.09939359 0.87409407
0001b0 e0 2e 25 3f 8d f1 d3 be 7b 28 83 3f 7c ad bd bf
       0.6452465 -0.41395226 1.0246729 -1.4818568
0001c0 5c 98 53 bf 4b 2d be be 77 fc 07 3f 4b 17 a4 3c
       -0.82654357 -0.3714393 0.53119606 0.020030638
0001d0 da a5 a2 3e 27 ce f8 be dc 9c 8c 3f 21 d3 ea 3e
       0.3176716 -0.48594782 1.098537 0.45864204
0001e0 0b cd 05 bf c8 1e 95 be 42 17 1d 3e c7 08 c0 bf
       -0.52265996 -0.29125047 0.15340903 -1.5002679
0001f0 4f 97 2c bf d5 12 a0 3e f1 58 ab bf 93 88 bf 3f
       -0.6741838 0.31264368 -1.3386518 1.4963554
000200 b8 5e 98 3e 62 4c 76 bf 0c 39 17 bf 97 e0 a6 bf
       0.29759765 -0.962103 -0.5907142 -1.3037289
000210 8e 1f af bd 42 0b 93 3f 2f f5 29 3f 69 89 df bc
       -0.085509405 1.1487811 0.66389745 -0.027287202
000220 35 7b b5 3f d1 4f c7 3f d8 23 03 3f e8 d2 7c 3f
       1.4178225 1.5571233 0.5122657 0.9875932
000230 5a 4d 17 3f ef a5 ac 3d 08 b1 71 bf 38 f8 21 3f
       0.59102404 0.08430087 -0.94410753 0.63269377
000240 f7 7a 80 bc bc c9 e8 3e 3d e8 1a bf 48 bf 0f 3e
       -0.015683634 0.4546641 -0.6051062 0.14037812
000250 69 48 84 bf 8a 67 9f be 28 7a a7 be 3c 84 7d 3e
       -1.0334598 -0.31133682 -0.32710385 0.24757475
000260 c6 43 c1 bd 21 ea 97 3f 64 4b be be bb d9 e3 3c
       -0.09436755 1.1868325 -0.37166893 0.027813783
000270 15 93 67 3f 9c b1 87 3f de cc 76 3f 3d 0b 40 3f
       0.90458804 1.0601077 0.9640635 0.7501715
000280 11 02 6d 3f d3 df 34 3e d1 d0 43 bf 94 d1 1f 3f
       0.9258128 0.17663507 -0.76490504 0.62429166
000290 b8 bc 7b 3f 95 1c c1 3f 56 b7 ee 3e 38 9f b2 bf
       0.98334837 1.5086848 0.4662425 -1.395484
0002a0 de b3 a5 3f f5 f0 b0 3e 92 58 95 bd ed 42 ad 3f
       1.2945516 0.34558836 -0.07292284 1.3536049
0002b0 cb d1 0a 3e 46 be 1c bf 42 d5 c5 3d db 7d e9 3e
       0.13556592 -0.61227834 0.09659816 0.45603833
0002c0 8f ab 00 be 40 28 89 bf 2b cd 6e 3f 34 28 79 3f
       -0.12565444 -1.0715408 0.9328181 0.9732697
0002d0 2e 1c b4 3f a9 61 43 3e b0 4d ef 3e bc 88 f9 3e
       1.40711 0.19080223 0.46738958 0.48737133
0002e0 73 a5 1e 3f 94 57 5d 3e ad 21 32 be 74 2f 4e 3f
       0.61971205 0.2161544 -0.17395659 0.8054116
0002f0 6d 5d ab 3d 05 43 f4 3f f7 2f 93 be 5e 92 9d 3f
       0.08367429 1.9082953 -0.28747532 1.2310293
000300 c4 74 d0 be e3 be 48 be 63 9d ea be 45 27 d2 bf
       -0.40714085 -0.19604068 -0.45823202 -1.6418234
000310 4c 96 0c 3f e7 7a 05 bf 16 b1 80 3f ff ce 45 3f
       0.54916835 -0.5214066 1.0054042 0.77268976
000320 0d f2 e7 3e f1 91 52 3f d7 e3 0e 3f d3 5f 53 3f
       0.45301858 0.8225394 0.55816406 0.8256809
000330 46 7b b8 3f 88 b7 90 3d b4 76 22 3f 47 32 ab be
       1.441262 0.07066256 0.63462377 -0.33436796
000340 bb 6a 3f be 2f af 37 bd 6a 86 04 3f e5 a0 eb 3d
       -0.18693058 -0.044844802 0.517676 0.115052976
000350 7b 1e 97 be 49 ef 4c 3f 17 17 9e 3f 2c 9e 47 bf
       -0.29515442 0.8005262 1.2350796 -0.77975726
000360 d9 2c 49 bf b5 08 af 3e f1 4c 79 3e 05 27 01 40
       -0.7858406 0.3418633 0.24345757 2.0180066
000370 2f ba eb 3f 67 60 1f bf 1d b7 42 bf 75 f0 31 3f
       1.8416194 -0.62256473 -0.7606066 0.69507533
000380 9c b5 6d be 01 cb 90 3e 8b 60 33 be bb f0 0f 3d
       -0.2321381 0.2827988 -0.17517297 0.035141688
000390 df 9b 83 3e ee d8 d1 3e 52 b6 b7 3e 69 e6 38 3f
       0.25704858 0.40985817 0.35881287 0.7222658
0003a0 d1 2b ff 3e ec c2 0d bf 84 b2 ad bf 5e 60 d8 be
       0.49838117 -0.5537555 -1.3570104 -0.42261022
0003b0 83 a9 81 3f 75 07 d6 bf 66 20 a8 3f 33 4b f8 be
       1.0129856 -1.6721026 1.3134887 -0.48494872
0003c0 81 b3 48 3f ad 43 d7 bd a5 12 b1 3f 5c 65 29 3f
       0.783989 -0.10510955 1.3833815 0.6617029
0003d0 0e da 08 3f 57 d8 da be 37 52 79 3f 0f 07 e5 3e
       0.53457725 -0.4274318 0.97391075 0.44731948
0003e0 87 b2 dd 3e d8 da 67 3f 4a a7 24 3e f3 3a b3 bf
       0.43300268 0.90568304 0.1607944 -1.4002365
0003f0 4c dd 27 be 6d f9 b1 3e b2 33 fa 3c d7 f0 2c 3f
       -0.16393012 0.3476061 0.030542228 0.6755499

tril f4 [32, 32]
000000 00 00 80 3f 00 00 00 00 00 00 00 00 00 00 00 00
       1.0 0.0 0.0 0.0
000010 00 00 00 00 00 00 00 00 00 00 00 00 00 00 00 00
       0.0 0.0 0.0 0.0
000020 00 00 00 00 00 00 00 00 00 00 00 00 00 00 00 00
       0.0 0.0 0.0 0.0
000030 00 00 00 00 00 00 00 00 00 00 00 00 00 00 00 00
       0.0 0.0 0.0 0.0
000040 00 00 00 00 00 00 00 00 00 00 00 00 00 00 00 00
       0.0 0.0 0.0 0.0
000050 00 00 00 00 00 00 00 00 00 00 00 00 00 00 00 00
       0.0 0.0 0.0 0.0
000060 00 00 00 00 00 00 00 00 00 00 00 00 00 00 00 00
       0.0 0.0 0.0 0.0
000070 00 00 00 00 00 00 00 00 00 00 00 00 00 00 00 00
       0.0 0.0 0.0 0.0
000080 00 00 80 3f 00 00 80 3f 00 00 00 00 00 00 00 00
       1.0 1.0 0.0 0.0
000090 00 00 00 00 00 00 00 00 00 00 00 00 00 00 00 00
       0.0 0.0 0.0 0.0
0000a0 00 00 00 00 00 00 00 00 00 00 00 00 00 00 00 00
       0.0 0.0 0.0 0.0
0000b0 00 00 00 00 00 00 00 00 00 00 00 00 00 00 00 00
       0.0 0.0 0.0 0.0
0000c0 00 00 00 00 00 00 00 00 00 00 00 00 00 00 00 00
       0.0 0.0 0.0 0.0
0000d0 00 00 00 00 00 00 00 00 00 00 00 00 00 00 00 00
       0.0 0.0 0.0 0.0
0000e0 00 00 00 00 00 00 00 00 00 00 00 00 00 00 00 00
       0.0 0.0 0.0 0.0
0000f0 00 00 00 00 00 00 00 00 00 00 00 00 00 00 00 00
       0.0 0.0 0.0 0.0
000100 00 00 80 3f 00 00 80 3f 00 00 80 3f 00 00 00 00
       1.0 1.0 1.0 0.0
000110 00 00 00 00 00 00 00 00 00 00 00 00 00 00 00 00
       0.0 0.0 0.0 0.0
000120 00 00 00 00 00 00 00 00 00 00 00 00 00 00 00 00
       0.0 0.0 0.0 0.0
000130 00 00 00 00 00 00 00 00 00 00 00 00 00 00 00 00
       0.0 0.0 0.0 0.0
000140 00 00 00 00 00 00 00 00 00 00 00 00 00 00 00 00
       0.0 0.0 0.0 0.0
000150 00 00 00 00 00 00 00 00 00 00 00 00 00 00 00 00
       0.0 0.0 0.0 0.0
000160 00 00 00 00 00 00 00 00 00 00 00 00 00 00 00 00
       0.0 0.0 0.0 0.0
000170 00 00 00 00 00 00 00 00 00 00 00 00 00 00 00 00
       0.0 0.0 0.0 0.0
000180 00 00 80 3f 00 00 80 3f 00 00 80 3f 00 00 80 3f
       1.0 1.0 1.0 1.0
000190 00 00 00 00 00 00 00 00 00 00 00 00 00 00 00 00
       0.0 0.0 0.0 0.0
0001a0 00 00 00 00 00 00 00 00 00 00 00 00 00 00 00 00
       0.0 0.0 0.0 0.0
0001b0 00 00 00 00 00 00 00 00 00 00 00 00 00 00 00 00
       0.0 0.0 0.0 0.0
0001c0 00 00 00 00 00 00 00 00 00 00 00 00 00 00 00 00
       0.0 0.0 0.0 0.0
0001d0 00 00 00 00 00 00 00 00 00 00 00 00 00 00 00 00
       0.0 0.0 0.0 0.0
0001e0 00 00 00 00 00 00 00 00 00 00 00 00 00 00 00 00
       0.0 0.0 0.0 0.0
0001f0 00 00 00 00 00 00 00 00 00 00 00 00 00 00 00 00
       0.0 0.0 0.0 0.0
000200 00 00 80 3f 00 00 80 3f 00 00 80 3f 00 00 80 3f
       1.0 1.0 1.0 1.0
000210 00 00 80 3f 00 00 00 00 00 00 00 00 00 00 00 00
       1.0 0.0 0.0 0.0
000220 00 00 00 00 00 00 00 00 00 00 00 00 00 00 00 00
       0.0 0.0 0.0 0.0
000230 00 00 00 00 00 00 00 00 00 00 00 00 00 00 00 00
       0.0 0.0 0.0 0.0
000240 00 00 00 00 00 00 00 00 00 00 00 00 00 00 00 00
       0.0 0.0 0.0 0.0
000250 00 00 00 00 00 00 00 00 00 00 00 00 00 00 00 00
       0.0 0.0 0.0 0.0
000260 00 00 00 00 00 00 00 00 00 00 00 00 00 00 00 00
       0.0 0.0 0.0 0.0
000270 00 00 00 00 00 00 00 00 00 00 00 00 00 00 00 00
       0.0 0.0 0.0 0.0
000280 00 00 80 3f 00 00 80 3f 00 00 80 3f 00 00 80 3f
       1.0 1.0 1.0 1.0
000290 00 00 80 3f 00 00 80 3f 00 00 00 00 00 00 00 00
       1.0 1.0 0.0 0.0
0002a0 00 00 00 00 00 00 00 00 00 00 00 00 00 00 00 00
       0.0 0.0 0.0 0.0
0002b0 00 00 00 00 00 00 00 00 00 00 00 00 00 00 00 00
       0.0 0.0 0.0 0.0
0002c0 00 00 00 00 00 00 00 00 00 00 00 00 00 00 00 00
       0.0 0.0 0.0 0.0
0002d0 00 00 00 00 00 00 00 00 00 00 00 00 00 00 00 00
       0.0 0.0 0.0 0.0
0002e0 00 00 00 00 00 00 00 00 00 00 00 00 00 00 00 00
       0.0 0.0 0.0 0.0
0002f0 00 00 00 00 00 00 00 00 00 00 00 00 00 00 00 00
       0.0 0.0 0.0 0.0
000300 00 00 80 3f 00 00 80 3f 00 00 80 3f 00 00 80 3f
       1.0 1.0 1.0 1.0
000310 00 00 80 3f 00 00 80 3f 00 00 80 3f 00 00 00 00
       1.0 1.0 1.0 0.0
000320 00 00 00 00 00 00 00 00 00 00 00 00 00 00 00 00
       0.0 0.0 0.0 0.0
000330 00 00 00 00 00 00 00 00 00 00 00 00 00 00 00 00
       0.0 0.0 0.0 0.0
000340 00 00 00 00 00 00 00 00 00 00 00 00 00 00 00 00
       0.0 0.0 0.0 0.0
000350 00 00 00 00 00 00 00 00 00 00 00 00 00 00 00 00
       0.0 0.0 0.0 0.0
000360 00 00 00 00 00 00 00 00 00 00 00 00 00 00 00 00
       0.0 0.0 0.0 0.0
000370 00 00 00 00 00 00 00 00 00 00 00 00 00 00 00 00
       0.0 0.0 0.0 0.0
000380 00 00 80 3f 00 00 80 3f 00 00 80 3f 00 00 80 3f
       1.0 1.0 1.0 1.0
000390 00 00 80 3f 00 00 80 3f 00 00 80 3f 00 00 80 3f
       1.0 1.0 1.0 1.0
0003a0 00 00 00 00 00 00 00 00 00 00 00 00 00 00 00 00
       0.0 0.0 0.0 0.0
0003b0 00 00 00 00 00 00 00 00 00 00 00 00 00 00 00 00
       0.0 0.0 0.0 0.0
0003c0 00 00 00 00 00 00 00 00 00 00 00 00 00 00 00 00
       0.0 0.0 0.0 0.0
0003d0 00 00 00 00 00 00 00 00 00 00 00 00 00 00 00 00
       0.0 0.0 0.0 0.0
0003e0 00 00 00 00 00 00 00 00 00 00 00 00 00 00 00 00
       0.0 0.0 0.0 0.0
0003f0 00 00 00 00 00 00 00 00 00 00 00 00 00 00 00 00
       0.0 0.0 0.0 0.0

weight f4 [16, 64]
000000 4f 32 5d bd 05 ac b6 bd 39 0e b2 3e 0f e8 02 3e
       -0.054003056 -0.08919529 0.34776476 0.12783836
000010 07 27 9b 3c 66 11 86 3e d1 42 ab bc 59 ce 4b be
       0.018939508 0.2618515 -0.020905884 -0.19902934
000020 6f 6e c8 3d ce 49 6f be 54 40 96 3d cf 66 18 be
       0.097866885 -0.23367998 0.07336488 -0.14882968
000030 a0 cc 45 3e 0f d9 42 3d e1 e6 54 bd 71 5b 3c be
       0.1931634 0.047570284 -0.051977996 -0.18394257
000040 cb 1e 45 3e 02 db 12 bd 9f 95 fe 3d 36 47 58 be
       0.19250028 -0.035853393 0.12430882 -0.21120915
000050 6f bb af 3e f1 37 05 be 11 93 8e 3e cb 8b aa 3e
       0.34322688 -0.13009621 0.27846578 0.3330978
000060 bd b1 16 3e 1b 1d 55 be fe 47 3e bd 0c d2 e2 bc
       0.1471624 -0.20811884 -0.046455376 -0.027688049
000070 d6 4c f2 be 88 4b 77 bc b1 db d4 3c a6 38 20 3e
       -0.47324246 -0.015093692 0.025983663 0.1564661
000080 2f 03 26 3e 94 5f e4 3d f9 eb 03 3f 07 f5 6d be
       0.16212152 0.111510426 0.5153194 -0.23238002
000090 a9 67 16 be ac f6 29 bd 92 c9 ab be ae 83 2f 3e
       -0.1468798 -0.04149501 -0.33552223 0.17140076
0000a0 a8 7b 33 be ce 83 e1 3d 1f 34 22 3e 57 d6 91 be
       -0.1752764 0.11011468 0.15840195 -0.2848384
0000b0 dd 50 d3 be dd 2c 80 3e 27 a7 91 3b cb af ce bb
       -0.4127263 0.25034228 0.004444975 -0.0063075772
0000c0 af 8f 10 3e f4 6f 19 3e 18 04 12 3e 5a c8 41 3e
       0.14117311 0.14984113 0.14259374 0.18924084
0000d0 b4 91 bb 3d ad 25 4d 3e 17 7f 36 be 80 31 f4 3d
       0.0915865 0.20033903 -0.17821918 0.11923504
0000e0 4a 31 99 be 68 37 05 3e fc 53 d5 3d e0 44 a5 3d
       -0.29920417 0.13009417 0.104164094 0.080697775
0000f0 1a 8a a2 bd 98 4b f4 bd 79 8a 1c be 6f de 1e be
       -0.07936497 -0.11928481 -0.15287198 -0.15514539
000100 35 3b 45 bc bf 8f 8c 3c fe c0 f0 3e b7 6b 90 3e
       -0.012038042 0.017158387 0.4702224 0.2820718
000110 c7 f4 83 3e d8 bc 0a 3e 7a 2e cf bc 14 0d 53 3e
       0.25772688 0.135486 -0.025290716 0.20610458
000120 ad 83 bf bd f8 d1 8c 3e d7 1e b8 3d fb 2f 8e 3d
       -0.09351287 0.27503943 0.08990257 0.06942745
000130 12 b7 7e 3d 59 0f 66 bd 8b 91 c4 be b9 6d 2f 3e
       0.06218631 -0.05616698 -0.3839229 0.171317
000140 66 c6 8a bd 1a d8 b2 be da 12 a7 3d 0e 57 ee 3e
       -0.06776123 -0.34930497 0.081578925 0.46550792
000150 50 a1 6b 3e 96 78 84 3e 9d eb 2d be 35 6a e1 3d
       0.23010755 0.2587325 -0.1698441 0.110065855
000160 90 96 95 3e 43 d8 99 be 29 e7 76 bd 4a 4b 27 be
       0.29216433 -0.30047807 -0.060279045 -0.16337314
000170 00 fc 1b 3c 89 4e 28 3e 0e 8a 58 be 21 96 df bd
       0.009520531 0.16436209 -0.21146414 -0.10917307
000180 3c cb 2c bd be a4 69 bd 2f cb 3d 3e 23 25 6b bd
       -0.042186007 -0.057041876 0.1853454 -0.057408463
000190 b9 fa 02 3e 71 69 da bd 53 6b 90 bd eb 92 92 bd
       0.12790956 -0.106646426 -0.070517205 -0.07156929
0001a0 5c e9 49 3e 7f e3 5f bd cd 9d aa 3b 99 c4 0d be
       0.19717926 -0.054660317 0.0052067996 -0.13844527
0001b0 7c cf d8 be 7e 9c 4b 3d 4c 99 38 be f3 e1 24 be
       -0.42345798 0.04970979 -0.18027228 -0.16101818
0001c0 3d d2 85 3e e6 be 2e 3d 19 01 53 be 7e 61 d3 bd
       0.26136962 0.042662524 -0.20605887 -0.103213295
0001d0 7d 70 7d be d1 c5 aa bd c8 2f 0c be fa 77 e9 3c
       -0.24749942 -0.08338512 -0.13690102 0.028499592
0001e0 de 08 b8 3e eb 51 c7 be fc 68 7a 3d a5 86 88 3c
       0.35944265 -0.38929686 0.061135277 0.016665766
0001f0 60 50 73 bd 6f 2a 09 bd 03 27 9d 3d 65 1a 24 3e
       -0.059402823 -0.033487733 0.076734565 0.16025694
000200 ef e8 bd 3d 3e b3 ac bd 09 05 a6 3d ef 76 31 3e
       0.09272944 -0.08432625 0.08106429 0.17330526
000210 f1 ed 3e be 0c e5 c9 3e 43 30 73 be a6 cd fa 3d
       -0.18645455 0.3943256 -0.23748879 0.122462556
000220 13 84 31 bd 38 d7 f5 3d 99 03 6d bd 44 de 82 be
       -0.043338846 0.1200394 -0.05786476 -0.255602
000230 4d e4 83 be 40 d2 c2 3d 3c 84 3b 3e c5 77 59 3e
       -0.25760117 0.09512758 0.18312162 0.21237095
000240 a2 3a cf bd 3c 92 a4 3e 57 2f ac bd 12 93 14 3e
       -0.10118605 0.32142818 -0.08407467 0.14509228
000250 58 37 24 3e 73 d4 bc be 6d c6 28 be ca dd fa bd
       0.16036737 -0.36880836 -0.16481943 -0.12249334
000260 d1 c8 b4 bc d7 6d b9 bd 46 6e 8b 3c 22 8e 06 be
       -0.022068413 -0.090541534 0.017020356 -0.13140157
000270 98 22 a6 bd 13 cb 70 3e 72 60 c7 3d 93 59 75 3e
       -0.08112067 0.23514967 0.09735192 0.23959951
000280 48 8e 1b 3d cd df 51 be 51 c3 86 3d 04 ee 04 3e
       0.037977487 -0.2049553 0.065802224 0.12981421
000290 96 42 70 3e 64 25 60 be 49 39 12 bd d1 65 a3 bc
       0.234629 -0.21889263 -0.035699163 -0.01994601
0002a0 e0 e1 3e be 0c 26 5e 3e b4 80 7c 3e e2 0a a6 3c
       -0.18640852 0.21694201 0.24658471 0.020268861
0002b0 e7 6a 2e be e8 ab 82 3e 80 3b 4c be af 90 84 3d
       -0.17032968 0.2552178 -0.19944572 0.06472909
0002c0 cd 44 1e be b0 fe 5b 3e af 61 30 3e 4c 30 56 bd
       -0.15455933 0.21483874 0.17224763 -0.052292153
0002d0 bb 0a 27 3d 5a 62 af 3e d5 63 48 be 84 1c e8 be
       0.040781718 0.34254724 -0.19569333 -0.45334256
0002e0 cf e4 71 3b f9 59 2e be 80 10 a3 3c 89 ea c4 be
       0.0036910062 -0.1702651 0.019905329 -0.38460186
0002f0 de 78 ee 3c 74 c1 e6 bd c8 4d b8 3c 0c aa 3e 3e
       0.029110368 -0.11267367 0.022498026 0.18619555
000300 19 38 90 3e 39 5e 93 3e c1 4c 3c 3e bb b6 ad be
       0.281678 0.28782824 0.18388654 -0.33928475
000310 03 55 d3 be e9 e3 45 3c cc 0c 0a bf 6f d2 6d 3e
       -0.41275796 0.012078264 -0.53925776 0.23224805
000320 32 d0 60 3e 95 e4 c8 3d d7 2d 3a bd d3 15 24 3e
       0.2195442 0.098092236 -0.045453873 0.1602395
000330 b2 cf 20 bd 2a 71 66 3e 98 0d b9 be 36 ea e4 3b
       -0.039260574 0.22504106 -0.36143184 0.006985928
000340 66 0b a7 be 3e de 7a 3d 23 1d 62 bc 74 ae dc bc
       -0.32625884 0.061247103 -0.013800892 -0.026938654
000350 5c 7c ef 3d 94 f2 8a 3e 69 23 30 be 45 67 83 3d
       0.116936415 0.27138197 -0.17201008 0.064161815
000360 8c 63 36 3e 12 03 22 3e 5a d9 77 3e b6 7f 32 be
       0.17811412 0.15821484 0.24204007 -0.1743153
000370 e8 b3 27 3e 38 98 8c bc e8 5c d0 3d e0 b3 08 bd
       0.16377223 -0.017162427 0.101739705 -0.033374667
000380 ca c4 b9 be 58 e6 b7 bc 7f 09 b1 bd c2 49 09 3d
       -0.3628295 -0.022448704 -0.08644389 0.033517607
000390 b5 b5 0c bd 2d 47 97 3e 6b 63 b5 3d 13 13 13 3e
       -0.034352977 0.2954649 0.08856853 0.14362745
0003a0 f8 e8 df bd e9 84 73 3e ec bc 4e bd f2 78 78 bc
       -0.10933107 0.2378117 -0.05047314 -0.015165554
0003b0 02 6f 15 be 21 74 1e bd 8b ec a6 3e e4 80 51 be
       -0.14593127 -0.038684968 0.32602343 -0.20459324
0003c0 c5 71 77 3c 71 19 78 be f6 21 e9 bd 51 0b 1c be
       0.015102808 -0.24228455 -0.11383431 -0.15238692
0003d0 d3 fe 62 be 6c 12 11 be 4a ae 93 3d 6d 80 6e bd
       -0.2216752 -0.14167184 0.072109774 -0.058227945
0003e0 b5 0a 41 3d 41 d1 56 3e 9c 73 6c be d9 e5 e4 3e
       0.04712935 0.20978262 -0.23090976 0.4470661
0003f0 6e 18 3d be a3 05 f7 3d 25 87 26 3e cc 84 e3 3d
       -0.1846635 0.12061622 0.16262491 0.11109313

weight f4 [16, 64]
000000 36 82 db bb f7 b5 86 be 20 db 59 3c 90 9e 9d bd
       -0.006698872 -0.26310703 0.013296872 -0.07696259
000010 12 36 69 be e4 2c 6a be 05 a5 1b bc de 69 01 be
       -0.22774532 -0.22868687 -0.009499793 -0.12638041
000020 d2 a4 9c bb 5e 00 e6 be 31 bb b7 be 98 2b 14 3e
       -0.0047803903 -0.44922155 -0.35885003 0.14469755
000030 d8 b2 7d 3d b6 d2 1f 3e 8f 48 97 3e 57 59 60 3d
       0.061938137 0.15607724 0.29547545 0.0547727
000040 70 45 ef ba 68 74 22 3d f4 af c2 bb 9d 10 c5 bc
       -0.0018254947 0.039661795 -0.0059413854 -0.024055773
000050 49 00 08 be 1c 31 90 be 0e b5 19 3d 64 22 48 be
       -0.13281359 -0.28162467 0.037526183 -0.19544369
000060 c4 42 ca be 62 a1 2f 3e 79 e1 8f 3e 96 80 24 bd
       -0.39504063 0.17151406 0.2810171 -0.04016169
000070 8e 28 e3 bc 03 ad 8b 3c be c5 06 3e 14 07 60 be
       -0.027729299 0.017050272 0.1316137 -0.218777
000080 2b 93 92 b9 ad 8d d5 3d 49 a3 b9 be 07 bb 00 3d
       -0.0002795694 0.10427413 -0.3625739 0.031428363
000090 67 1a c8 bc 5a 31 b6 bd 68 86 41 3d f9 d2 0d 3c
       -0.024426652 -0.08896132 0.04724732 0.008656257
0000a0 ef e4 9b 3d 40 cb d6 3d d8 c1 29 3c d7 5c 77 3e
       0.07612025 0.104879856 0.010361157 0.2415651
0000b0 a4 68 f1 bd f8 55 67 be 7f e2 2e 3e 9e 92 8c 3e
       -0.11787537 -0.22591388 0.17078589 0.2745561
0000c0 8a 38 1e be 9d 3d a2 3d e5 18 cb 3e 7a ec ac be
       -0.15451255 0.07921908 0.3966743 -0.33774167
0000d0 5a 18 60 3d 3b 22 14 3f 28 9d 37 3e 5f e0 69 be
       0.054710723 0.5786473 0.17931044 -0.22839497
0000e0 2f 86 a5 bd 9c cc 6e 3e 97 03 2b 3e 72 80 7c be
       -0.08082234 0.2332024 0.16700588 -0.24658373
0000f0 f9 ce 7c 3e 69 16 18 3c 8a 16 81 3e ae 79 8e 3e
       0.24688329 0.009282687 0.25212508 0.2782721
000100 5c 01 d4 3d 92 f5 b8 3d ed 24 a4 bd 6d 98 ab 3d
       0.10351822 0.09031214 -0.080148555 0.08378682
000110 a4 dd cc bd a2 79 92 3c 36 c1 9e bd 4b 30 c7 3e
       -0.10003212 0.017880265 -0.07751696 0.38904032
000120 58 1f 0e 3d 30 71 21 3e 48 0c 8f bd 25 c6 4e be
       0.03469786 0.15765834 -0.06984764 -0.20192774
000130 14 b1 32 bd 49 ba 94 3d 33 ff 98 bd 45 b2 c9 bd
       -0.043625906 0.072620936 -0.074705504 -0.09848455
000140 1c df ff bd 04 d1 69 b9 54 f1 89 3e 13 62 b4 3c
       -0.124937266 -0.00022298476 0.2694193 0.022019422
000150 4c 47 2b be e0 7b 94 bd 88 94 31 3d 7f 94 81 be
       -0.16726416 -0.0725019 0.04335454 -0.25308606
000160 c5 cd 94 bd b1 e0 72 3e 78 16 32 3e d3 8d 96 3e
       -0.0726581 0.23718525 0.17391384 0.29405078
000170 bc b8 61 bd a0 6e 6c be e8 f2 97 bd 13 7e 88 be
       -0.055107817 -0.23089075 -0.074193776 -0.26658687
000180 ad c9 03 3f 7a fd 03 be 3e 6e 9c 3d 07 8a 10 3e
       0.5147961 -0.12889662 0.076382145 0.14115153
000190 b0 f9 2e 3e cd 17 d1 3d ef 73 92 3b 1c c3 0c be
       0.17087436 0.10209618 0.004469387 -0.13746303
0001a0 24 21 ad be 97 30 59 be 7a 17 b1 3b e8 6d 9c bd
       -0.33814347 -0.21209942 0.00540441 -0.076381505
0001b0 2f 4b 68 be 45 3c 42 bd 0e a1 c1 bc 44 85 8f 3c
       -0.2268493 -0.04742076 -0.023636367 0.0175196
0001c0 0c 94 c4 bd ef 3d 14 3d c2 bb f1 3e 34 c1 01 bf
       -0.0959855 0.036191877 0.4721356 -0.5068543
0001d0 83 78 eb bd a2 ae 1a 3e ab 84 ad be f1 20 8f 3d
       -0.11497595 0.1510568 -0.3389028 0.06988705
0001e0 e6 71 17 3f 55 fb ba bd bb 36 21 be a8 02 2c bc
       0.5915817 -0.09129969 -0.15743534 -0.01049868
0001f0 b2 b9 ba 3d 93 3a d1 bd c9 8d a2 3e fb d6 fc 3c
       0.0911745 -0.1021625 0.31748798 0.03086423
000200 3c 35 aa bd 6c 79 42 3e a2 ad fd bc 79 a7 c7 bc
       -0.08310935 0.18991631 -0.030966584 -0.02437185
000210 c7 89 b0 bd 1a 7c a0 be d0 9c b3 3d cd 6e ba bc
       -0.08620029 -0.31344682 0.08770144 -0.022757912
000220 8c eb 79 3d 05 cc 2f be 24 d4 9e bc 63 fe 9a 3e
       0.06101565 -0.17167671 -0.019388266 0.30272207
000230 c5 ce 58 3e f2 76 d8 3e 53 53 40 3d 9f db 9a be
       0.21172626 0.42278248 0.046954464 -0.30245683
000240 6a 54 fd bd 42 77 da be f9 1b b8 3e 11 b6 ef bb
       -0.12369616 -0.42669111 0.3595884 -0.007315405
000250 91 fc 7e 3e 02 bc 37 3e 6b 89 e1 bc e4 99 80 be
       0.24901034 0.17942813 -0.027531346 -0.2511741
000260 14 3c a6 3d 8b bd 08 be 76 34 ea 3d db 92 3f be
       0.08116928 -0.13353555 0.114357874 -0.18708365
000270 62 02 38 be 2a 3e 42 bd 5c 82 06 be 3e 11 ca bd
       -0.17969659 -0.047422566 -0.13135666 -0.0986657
000280 2e 05 57 be de 38 13 3f b8 e9 ea be 90 77 64 3e
       -0.2099807 0.5750865 -0.45881438 0.22311234
000290 10 f7 d8 bd 65 17 7c 3e 7a d6 04 bc cb 2c b4 3d
       -0.105939984 0.246183 -0.008107776 0.08797606
0002a0 ff db 25 bb 1d 40 64 bd 7b 81 a8 bc e0 8e 1a be
       -0.002530813 -0.055725206 -0.020569554 -0.15093565
0002b0 cd 26 e9 3d ce 6a 89 be d2 85 d2 3e 2b fe b4 bc
       0.11384354 -0.26839298 0.41117722 -0.022093853
0002c0 71 56 52 3e 2a ae 91 3d 1f 63 ee 3d bc f8 e6 bd
       0.20540787 0.07113297 0.116399996 -0.11277911
0002d0 e7 b6 02 be b2 38 15 be 03 cb ad bc 23 45 ce 3d
       -0.12765084 -0.14572409 -0.021214968 0.100717805
0002e0 93 87 33 be b8 97 12 be 71 6b 28 3e f3 58 68 3d
       -0.17532186 -0.14315689 0.16447236 0.056725454
0002f0 9f 3b 8b 3d c3 19 f8 3d c7 63 c1 bc 02 0e d2 bc
       0.06798481 0.12114289 -0.023607148 -0.025641445
000300 b7 66 05 3c 80 76 59 3e a0 fe 5e be c5 ff 40 3e
       0.008142165 0.2123661 -0.21776819 0.18847568
000310 01 60 87 3e c3 f8 18 be d3 ff 01 3d 73 3b 44 be
       0.26440433 -0.14938645 0.031738114 -0.19163303
000320 a7 70 93 be 5a 8a 8f 3e 2d 57 60 3b b5 3c 55 3e
       -0.28796884 0.2803524 0.0034231648 0.20823939
000330 26 e1 8b 3e 1f df 92 be dc cc 8b 3e 53 00 6c 3e
       0.27320212 -0.28685853 0.27304733 0.23046999
000340 e2 37 68 3e 47 5f da 3d 29 e4 8f 3e ad 7a fa 3d
       0.22677568 0.10662704 0.2810376 0.1223043
000350 21 1d a4 3d 0e 0f 37 be 61 95 31 3e ec c2 8d be
       0.080133684 -0.17876837 0.1734214 -0.27687776
000360 d5 f5 91 3d 97 5d 32 be dc 20 e3 bd 7d 2e 78 3e
       0.07126967 -0.17418514 -0.11090252 0.24236484
000370 5d f6 86 3d 49 e8 82 bd 80 f1 bb 3d 64 96 1f 3e
       0.06589959 -0.06391961 0.09176922 0.15584713
000380 b6 60 93 3e e6 74 bd be d8 be c4 3d af ab 6a be
       0.28784722 -0.3700325 0.09606713 -0.22917055
000390 00 69 86 3d 11 a3 22 bd 51 95 8e 3d f4 9a 12 3e
       0.06562996 -0.039706293 0.069620736 0.14316922
0003a0 e3 9b b8 3d 0d 8e d4 bd 68 a6 28 be 4d 0f 76 be
       0.09014108 -0.103786565 -0.16469729 -0.24029274
0003b0 eb 07 80 3e 13 53 04 3e e0 c6 89 3c a0 15 1a 3e
       0.2500604 0.12922315 0.016818464 0.15047312
0003c0 96 c1 4c bd 95 f1 b2 3e 91 75 77 be 45 55 83 3e
       -0.049989305 0.34949937 -0.24165942 0.25650993
0003d0 ec 2e 7a be 8a 12 f8 3d a2 9a 8a be 69 c6 16 3e
       -0.24431962 0.12112911 -0.270711 0.14724125
0003e0 61 5e 1c 3e 39 43 a8 be 5a a7 84 bd 0d 15 78 be
       0.15270378 -0.32863787 -0.06477232 -0.2422678
0003f0 b6 bd 20 3e 42 10 96 be 07 df 23 bd 07 5b a5 be
       0.15697369 -0.2930928 -0.040007617 -0.3229601

weight f4 [16, 64]
000000 f2 69 b2 3c 18 c5 1a 3d 03 e4 53 bd e8 be 92 bd
       0.021779034 0.03778562 -0.05173112 -0.07165319
000010 64 af bf bd 41 98 26 be 36 88 ec 3d 36 c5 f8 bd
       -0.09359625 -0.16269018 0.11549418 -0.1214699
000020 18 90 45 3e 50 8f 68 3e a5 be 13 3d 3a 15 cf 3d
       0.19293249 0.2271092 0.036070485 0.101114705
000030 41 42 94 bc 5a 97 d2 bd 9e 0a b0 3d 81 4d d9 3d
       -0.018097999 -0.10282774 0.08595775 0.10610486
000040 9c 98 c6 bd 01 01 ad 3c d1 dd 79 bd 6e f6 cb bd
       -0.09697077 0.021118643 -0.061002556 -0.09959112
000050 1b 1a 5c be 90 22 b7 3d 59 a0 83 bc 74 db b8 3d
       -0.21494333 0.08942139 -0.01606767 0.09026232
000060 21 28 82 3b 83 9e 87 bd 44 e7 30 3e 35 6b 20 be
       0.003972069 -0.066220306 0.17275721 -0.15665896
000070 04 cb 51 bc e6 55 61 3c 60 7b 00 be 0d 5a 96 3d
       -0.01280475 0.01375339 -0.12547064 0.073413946
000080 07 cd 53 be e7 f7 79 3d bb da ba bd e4 fe b7 bd
       -0.2068368 0.061027434 -0.09123751 -0.089841634
000090 39 85 b7 bd 87 f1 f7 bc 3e f4 18 be ad 46 00 3e
       -0.08960957 -0.030266536 -0.14936921 0.1252696
0000a0 a6 a0 8b bd 2b a8 02 3e bd bc 55 3e 7e ce 2b bd
       -0.06817751 0.12759463 0.20872779 -0.041944973
0000b0 82 93 f3 3b 86 71 4b bd 72 3c 1b 3e 30 4d 44 3e
       0.007433356 -0.04966881 0.15159777 0.1917007
0000c0 8a 38 4e be 9c 33 35 3d 68 bf 07 3d d7 53 0e 3e
       -0.20138755 0.04423867 0.033141524 0.1389917
0000d0 d0 b8 67 bd ff b3 94 b9 a7 68 34 3d 4a 96 b4 bc
       -0.056572735 -0.00028362867 0.044045117 -0.02204432
0000e0 84 1c 09 3d 4e b9 52 3d 78 78 aa bc 65 31 e4 3d
       0.03347446 0.05144625 -0.020809397 0.11142234
0000f0 a3 3c 1b be 85 f8 8a be 2a d1 6f bc 0d 40 ed bd
       -0.1515985 -0.2714273 -0.014637271 -0.11584482
000100 dd 84 c6 3d 92 45 cf bd 08 9b 82 bc 33 d4 e3 3d
       0.096933104 -0.10120691 -0.015943065 0.11124458
000110 a0 f3 fc 3d 25 7e c2 bd a9 c9 5d 3d b3 5f 0e 3d
       0.12351155 -0.094967164 0.054147396 0.034759235
000120 77 9d 91 3d 98 5b dd 3d ba 82 87 3d 4b e1 86 bd
       0.07110112 0.10808486 0.06616731 -0.0658594
000130 26 4d bf 3d bf 06 08 3d 3e e3 92 bd 68 f1 82 3e
       0.09340887 0.03320956 -0.07172249 0.25574803
000140 03 d7 4e be 59 88 79 3e d3 ea ef bd ee be 18 bc
       -0.20199208 0.24368419 -0.11714711 -0.009322865
000150 90 ec 36 be ba 97 f5 bd a8 d0 2e 3d 4b c8 14 bd
       -0.17863679 -0.1199183 0.04267946 -0.036323827
000160 4a f9 a6 bc 58 01 04 be 97 3b 11 3e a1 67 c1 3d
       -0.020382542 -0.12891138 0.14182888 0.09443594
000170 8c ab 75 bd d2 6c 2d 3e d1 a9 07 3d 35 72 89 bd
       -0.059978053 0.16936043 0.033120934 -0.067112364
000180 bd 29 3e bd 9c e5 fb 3c 3d 4d 07 be 87 b6 93 3d
       -0.046426523 0.030749135 -0.13213058 0.07212549
000190 7f cb 91 bc 39 6e 97 bd 74 08 3b 3d 9d 7b e0 bc
       -0.01779723 -0.0739407 0.04566236 -0.027402693
0001a0 77 be 4c be 55 4b f6 bd 3f e4 7a bd 50 6d 0c 3e
       -0.19994532 -0.12026087 -0.06125283 0.13713574
0001b0 c9 9d 88 3c 10 42 e6 bc 10 bb 26 be 2a a8 95 3d
       0.0166768 -0.028107673 -0.16282296 0.073074654
0001c0 dc 75 d3 3d 2f bd a9 3d 30 3c 7d 3d 04 df 0d 3e
       0.10325214 0.08288037 0.061824977 0.13854605
0001d0 d5 f7 2f 3d 3d 55 6d bd c1 d9 d4 bd e5 73 00 be
       0.04296096 -0.057942618 -0.10393096 -0.1254421
0001e0 55 14 43 bc 69 6e af bd b6 99 2d 3e a3 ef 44 3d
       -0.011906703 -0.08565981 0.16953167 0.048080098
0001f0 de d6 90 3d ef f7 1a be eb 71 39 bc a2 1e e2 3d
       0.07072233 -0.15133642 -0.011318664 0.11040999
000200 f9 89 fc bd 5f 26 39 bb ef ca d8 bc 0c 66 7b bd
       -0.12331004 -0.002825163 -0.026463954 -0.061376616
000210 dc 07 d8 bd 33 64 da bd b2 38 f2 bc 88 0f 29 3e
       -0.10548374 -0.10663643 -0.02956805 0.16509831
000220 23 9b 71 bc 5e 82 3a 3e cd 38 d7 bc d4 ea ac bd
       -0.01474646 0.18213794 -0.026272202 -0.084432274
000230 35 0e 78 3d 59 97 83 3d f7 1a 85 be 39 9b c3 bc
       0.060560424 0.06425352 -0.25997135 -0.023877727
000240 e6 c5 6c bc ec 55 93 bd 20 61 9b 3c a2 9e 75 bc
       -0.01445148 -0.07194123 0.018967211 -0.014991434
000250 1b ca 7c 3d 98 32 db bb 08 74 90 3d 18 b3 23 3e
       0.06171618 -0.006689381 0.07053381 0.15986288
000260 7d 83 fd bd fd c5 08 bc 9e e6 cb 3d 15 93 7e bd
       -0.12378595 -0.008347985 0.09956096 -0.062151987
000270 28 ab 05 3d 45 ba a3 3c 64 8a 5b 3c 9e 3c 31 be
       0.03263393 0.019986281 0.013399694 -0.1730828
000280 03 45 ad bc bd 35 a5 bd cd 20 6f bc ab e9 15 bd
       -0.021151071 -0.080668904 -0.014595223 -0.036599796
000290 ab 7b 0b be c0 75 d5 bd 36 a9 84 bd 4c 05 84 bd
       -0.13621394 -0.1042285 -0.06477587 -0.06446323
0002a0 bd 2a 0b bd 2d b3 1f bd 67 00 b1 3d 32 bc 0a 3e
       -0.033976305 -0.038989235 0.08642655 0.13548353
0002b0 7d 8d 5b bb 16 4c 11 bd 36 6c 0a bd f8 af 65 3d
       -0.0033501082 -0.03547295 -0.033794604 0.05607602
0002c0 14 19 17 3e 01 5c 3b 3e 04 b7 7c 3d c9 ae 30 3e
       0.1475566 0.18296815 0.061697975 0.17254175
0002d0 7c bf 2c 3c 63 b6 87 3d a4 f2 b5 3c 31 60 eb 3d
       0.0105437 0.066265844 0.022210427 0.114929564
0002e0 12 3f 22 be fa 9d ba 3d 7c 40 41 3d 6d de 13 bd
       -0.15844372 0.09112163 0.047180638 -0.036100794
0002f0 d8 e4 1e bd bb e3 0b 3e c6 98 0d 3d fd cf 94 bc
       -0.03879246 0.13661091 0.034569524 -0.018165583
000300 71 07 90 bd 06 f5 04 be 2f df 18 be 2f fb 17 3d
       -0.07032669 -0.12984094 -0.14928888 0.03710478
000310 72 8e 8c be 34 46 19 3e 0a db f5 bd 8e a6 72 be
       -0.27452427 0.14968187 -0.12004669 -0.23696348
000320 cd ad b6 3c 81 57 61 3d b7 d9 9f 3b 52 74 9b 3d
       0.022299672 0.05501509 0.0048782486 0.07590546
000330 7f 77 c7 3d 03 5e 27 3d e1 d2 0e 3e 9a b6 c1 bc
       0.09739589 0.04086114 0.13947631 -0.023646642
000340 c6 6a b9 bd d0 b3 13 3e 94 ed 83 bb d6 11 dc 3d
       -0.090535685 0.14424062 -0.0040261243 0.107455894
000350 53 e9 42 bd 9a c1 ba 3b e5 33 ab 3d bc b0 77 bc
       -0.047585797 0.0056993486 0.083595075 -0.01511782
000360 46 b0 f4 bc 4e f5 f7 3d 19 47 19 3e 8e af fa bd
       -0.02986921 0.12107335 0.14968528 -0.12240516
000370 2f b0 c3 3c 82 ac 11 bd ab ae a7 bd 7d 5e d5 bd
       0.023887722 -0.035564907 -0.08187612 -0.10418413
000380 7a bc 4d 3c 9a 2c ec 3c a1 71 84 3d 84 07 e1 3d
       0.012557143 0.028829861 0.064669855 0.109877616
000390 e6 30 98 ba e1 5c 96 3d ea 76 9f 3c 8b c4 b1 bd
       -0.0011611253 0.07341934 0.019465882 -0.08680066
0003a0 fd 23 2d 3d 80 c2 f3 3c 9a 7c 91 bd 0c 5c 4e be
       0.04227065 0.02975583 -0.07103844 -0.201523
0003b0 46 19 2a be 5b 06 95 3d 1a 31 0a 3d 81 0d 25 3d
       -0.16611204 0.07276603 0.033738233 0.04029608
0003c0 58 35 a3 3d cd a3 25 3e 92 1b 0e bd 4e 99 d9 3d
       0.07969159 0.16175766 -0.03469426 0.10624944
0003d0 af f8 f3 bc 61 18 d1 bd a0 4b 16 3d 1f 6c 8a 3c
       -0.029781668 -0.10209728 0.036693215 0.01689726
0003e0 6f d5 9a bd 48 90 80 bd ac 31 13 3e 44 d8 93 bd
       -0.075602405 -0.062775195 0.14374417 -0.07218984
0003f0 76 9f f7 bc 5a d8 9d 3b c5 e6 95 bd b1 b6 2c 3d
       -0.030227404 0.004817051 -0.073194064 0.042166416

tril f4 [32, 32]
000000 00 00 80 3f 00 00 00 00 00 00 00 00 00 00 00 00
       1.0 0.0 0.0 0.0
000010 00 00 00 00 00 00 00 00 00 00 00 00 00 00 00 00
       0.0 0.0 0.0 0.0
000020 00 00 00 00 00 00 00 00 00 00 00 00 00 00 00 00
       0.0 0.0 0.0 0.0
000030 00 00 00 00 00 00 00 00 00 00 00 00 00 00 00 00
       0.0 0.0 0.0 0.0
000040 00 00 00 00 00 00 00 00 00 00 00 00 00 00 00 00
       0.0 0.0 0.0 0.0
000050 00 00 00 00 00 00 00 00 00 00 00 00 00 00 00 00
       0.0 0.0 0.0 0.0
000060 00 00 00 00 00 00 00 00 00 00 00 00 00 00 00 00
       0.0 0.0 0.0 0.0
000070 00 00 00 00 00 00 00 00 00 00 00 00 00 00 00 00
       0.0 0.0 0.0 0.0
000080 00 00 80 3f 00 00 80 3f 00 00 00 00 00 00 00 00
       1.0 1.0 0.0 0.0
000090 00 00 00 00 00 00 00 00 00 00 00 00 00 00 00 00
       0.0 0.0 0.0 0.0
0000a0 00 00 00 00 00 00 00 00 00 00 00 00 00 00 00 00
       0.0 0.0 0.0 0.0
0000b0 00 00 00 00 00 00 00 00 00 00 00 00 00 00 00 00
       0.0 0.0 0.0 0.0
0000c0 00 00 00 00 00 00 00 00 00 00 00 00 00 00 00 00
       0.0 0.0 0.0 0.0
0000d0 00 00 00 00 00 00 00 00 00 00 00 00 00 00 00 00
       0.0 0.0 0.0 0.0
0000e0 00 00 00 00 00 00 00 00 00 00 00 00 00 00 00 00
       0.0 0.0 0.0 0.0
0000f0 00 00 00 00 00 00 00 00 00 00 00 00 00 00 00 00
       0.0 0.0 0.0 0.0
000100 00 00 80 3f 00 00 80 3f 00 00 80 3f 00 00 00 00
       1.0 1.0 1.0 0.0
000110 00 00 00 00 00 00 00 00 00 00 00 00 00 00 00 00
       0.0 0.0 0.0 0.0
000120 00 00 00 00 00 00 00 00 00 00 00 00 00 00 00 00
       0.0 0.0 0.0 0.0
000130 00 00 00 00 00 00 00 00 00 00 00 00 00 00 00 00
       0.0 0.0 0.0 0.0
000140 00 00 00 00 00 00 00 00 00 00 00 00 00 00 00 00
       0.0 0.0 0.0 0.0
000150 00 00 00 00 00 00 00 00 00 00 00 00 00 00 00 00
       0.0 0.0 0.0 0.0
000160 00 00 00 00 00 00 00 00 00 00 00 00 00 00 00 00
       0.0 0.0 0.0 0.0
000170 00 00 00 00 00 00 00 00 00 00 00 00 00 00 00 00
       0.0 0.0 0.0 0.0
000180 00 00 80 3f 00 00 80 3f 00 00 80 3f 00 00 80 3f
       1.0 1.0 1.0 1.0
000190 00 00 00 00 00 00 00 00 00 00 00 00 00 00 00 00
       0.0 0.0 0.0 0.0
0001a0 00 00 00 00 00 00 00 00 00 00 00 00 00 00 00 00
       0.0 0.0 0.0 0.0
0001b0 00 00 00 00 00 00 00 00 00 00 00 00 00 00 00 00
       0.0 0.0 0.0 0.0
0001c0 00 00 00 00 00 00 00 00 00 00 00 00 00 00 00 00
       0.0 0.0 0.0 0.0
0001d0 00 00 00 00 00 00 00 00 00 00 00 00 00 00 00 00
       0.0 0.0 0.0 0.0
0001e0 00 00 00 00 00 00 00 00 00 00 00 00 00 00 00 00
       0.0 0.0 0.0 0.0
0001f0 00 00 00 00 00 00 00 00 00 00 00 00 00 00 00 00
       0.0 0.0 0.0 0.0
000200 00 00 80 3f 00 00 80 3f 00 00 80 3f 00 00 80 3f
       1.0 1.0 1.0 1.0
000210 00 00 80 3f 00 00 00 00 00 00 00 00 00 00 00 00
       1.0 0.0 0.0 0.0
000220 00 00 00 00 00 00 00 00 00 00 00 00 00 00 00 00
       0.0 0.0 0.0 0.0
000230 00 00 00 00 00 00 00 00 00 00 00 00 00 00 00 00
       0.0 0.0 0.0 0.0
000240 00 00 00 00 00 00 00 00 00 00 00 00 00 00 00 00
       0.0 0.0 0.0 0.0
000250 00 00 00 00 00 00 00 00 00 00 00 00 00 00 00 00
       0.0 0.0 0.0 0.0
000260 00 00 00 00 00 00 00 00 00 00 00 00 00 00 00 00
       0.0 0.0 0.0 0.0
000270 00 00 00 00 00 00 00 00 00 00 00 00 00 00 00 00
       0.0 0.0 0.0 0.0
000280 00 00 80 3f 00 00 80 3f 00 00 80 3f 00 00 80 3f
       1.0 1.0 1.0 1.0
000290 00 00 80 3f 00 00 80 3f 00 00 00 00 00 00 00 00
       1.0 1.0 0.0 0.0
0002a0 00 00 00 00 00 00 00 00 00 00 00 00 00 00 00 00
       0.0 0.0 0.0 0.0
0002b0 00 00 00 00 00 00 00 00 00 00 00 00 00 00 00 00
       0.0 0.0 0.0 0.0
0002c0 00 00 00 00 00 00 00 00 00 00 00 00 00 00 00 00
       0.0 0.0 0.0 0.0
0002d0 00 00 00 00 00 00 00 00 00 00 00 00 00 00 00 00
       0.0 0.0 0.0 0.0
0002e0 00 00 00 00 00 00 00 00 00 00 00 00 00 00 00 00
       0.0 0.0 0.0 0.0
0002f0 00 00 00 00 00 00 00 00 00 00 00 00 00 00 00 00
       0.0 0.0 0.0 0.0
000300 00 00 80 3f 00 00 80 3f 00 00 80 3f 00 00 80 3f
       1.0 1.0 1.0 1.0
000310 00 00 80 3f 00 00 80 3f 00 00 80 3f 00 00 00 00
       1.0 1.0 1.0 0.0
000320 00 00 00 00 00 00 00 00 00 00 00 00 00 00 00 00
       0.0 0.0 0.0 0.0
000330 00 00 00 00 00 00 00 00 00 00 00 00 00 00 00 00
       0.0 0.0 0.0 0.0
000340 00 00 00 00 00 00 00 00 00 00 00 00 00 00 00 00
       0.0 0.0 0.0 0.0
000350 00 00 00 00 00 00 00 00 00 00 00 00 00 00 00 00
       0.0 0.0 0.0 0.0
000360 00 00 00 00 00 00 00 00 00 00 00 00 00 00 00 00
       0.0 0.0 0.0 0.0
000370 00 00 00 00 00 00 00 00 00 00 00 00 00 00 00 00
       0.0 0.0 0.0 0.0
000380 00 00 80 3f 00 00 80 3f 00 00 80 3f 00 00 80 3f
       1.0 1.0 1.0 1.0
000390 00 00 80 3f 00 00 80 3f 00 00 80 3f 00 00 80 3f
       1.0 1.0 1.0 1.0
0003a0 00 00 00 00 00 00 00 00 00 00 00 00 00 00 00 00
       0.0 0.0 0.0 0.0
0003b0 00 00 00 00 00 00 00 00 00 00 00 00 00 00 00 00
       0.0 0.0 0.0 0.0
0003c0 00 00 00 00 00 00 00 00 00 00 00 00 00 00 00 00
       0.0 0.0 0.0 0.0
0003d0 00 00 00 00 00 00 00 00 00 00 00 00 00 00 00 00
       0.0 0.0 0.0 0.0
0003e0 00 00 00 00 00 00 00 00 00 00 00 00 00 00 00 00
       0.0 0.0 0.0 0.0
0003f0 00 00 00 00 00 00 00 00 00 00 00 00 00 00 00 00
       0.0 0.0 0.0 0.0
